{
  "format": "layers-model",
  "generatedBy": "TensorFlow.js Converter v4.20.0",
  "convertedBy": "TensorFlow.js Converter v4.20.0",
  "modelTopology": {
    "keras_version": "2.15.0",
    "backend": "tensorflow",
    "model_config": {
      "class_name": "Functional",
      "config": {
        "name": "model_1",
        "trainable": true,
        "layers": [
          {
            "class_name": "InputLayer",
            "config": {
              "batch_input_shape": [
                null,
                256,
                256,
                3
              ],
              "dtype": "float32",
              "sparse": false,
              "ragged": false,
              "name": "input_2"
            },
            "name": "input_2",
            "inbound_nodes": []
          },
          {
            "class_name": "Conv2D",
            "config": {
              "name": "conv2d_3",
              "trainable": true,
              "dtype": {
                "module": "keras",
                "class_name": "DTypePolicy",
                "config": {
                  "name": "float32"
                },
                "registered_name": null
              },
              "filters": 16,
              "kernel_size": [
                3,
                3
              ],
              "strides": [
                1,
                1
              ],
              "padding": "same",
              "data_format": "channels_last",
              "dilation_rate": [
                1,
                1
              ],
              "groups": 1,
              "activation": "relu",
              "use_bias": true,
              "kernel_initializer": {
                "module": "keras.initializers",
                "class_name": "GlorotNormal",
                "config": {
                  "seed": null
                },
                "registered_name": null
              },
              "bias_initializer": {
                "module": "keras.initializers",
                "class_name": "Zeros",
                "config": {},
                "registered_name": null
              },
              "kernel_regularizer": null,
              "bias_regularizer": null,
              "activity_regularizer": null,
              "kernel_constraint": null,
              "bias_constraint": null
            },
            "name": "conv2d_3",
            "inbound_nodes": [
              {
                "args": [
                  {
                    "class_name": "__keras_tensor__",
                    "config": {
                      "shape": [
                        null,
                        256,
                        256,
                        3
                      ],
                      "dtype": "float32",
                      "keras_history": [
                        "input_2",
                        0,
                        0
                      ]
                    }
                  }
                ],
                "kwargs": {}
              }
            ]
          },
          {
            "class_name": "Conv2D",
            "config": {
              "name": "conv2d_4",
              "trainable": true,
              "dtype": {
                "module": "keras",
                "class_name": "DTypePolicy",
                "config": {
                  "name": "float32"
                },
                "registered_name": null
              },
              "filters": 16,
              "kernel_size": [
                3,
                3
              ],
              "strides": [
                1,
                1
              ],
              "padding": "same",
              "data_format": "channels_last",
              "dilation_rate": [
                1,
                1
              ],
              "groups": 1,
              "activation": "linear",
              "use_bias": true,
              "kernel_initializer": {
                "module": "keras.initializers",
                "class_name": "GlorotNormal",
                "config": {
                  "seed": null
                },
                "registered_name": null
              },
              "bias_initializer": {
                "module": "keras.initializers",
                "class_name": "Zeros",
                "config": {},
                "registered_name": null
              },
              "kernel_regularizer": null,
              "bias_regularizer": null,
              "activity_regularizer": null,
              "kernel_constraint": null,
              "bias_constraint": null
            },
            "name": "conv2d_4",
            "inbound_nodes": [
              {
                "args": [
                  {
                    "class_name": "__keras_tensor__",
                    "config": {
                      "shape": [
                        null,
                        256,
                        256,
                        16
                      ],
                      "dtype": "float32",
                      "keras_history": [
                        "conv2d_3",
                        0,
                        0
                      ]
                    }
                  }
                ],
                "kwargs": {}
              }
            ]
          },
          {
            "class_name": "BatchNormalization",
            "config": {
              "name": "batch_normalization",
              "trainable": true,
              "dtype": {
                "module": "keras",
                "class_name": "DTypePolicy",
                "config": {
                  "name": "float32"
                },
                "registered_name": null
              },
              "axis": 3,
              "momentum": 0.99,
              "epsilon": 0.001,
              "center": true,
              "scale": true,
              "beta_initializer": {
                "module": "keras.initializers",
                "class_name": "Zeros",
                "config": {},
                "registered_name": null
              },
              "gamma_initializer": {
                "module": "keras.initializers",
                "class_name": "Ones",
                "config": {},
                "registered_name": null
              },
              "moving_mean_initializer": {
                "module": "keras.initializers",
                "class_name": "Zeros",
                "config": {},
                "registered_name": null
              },
              "moving_variance_initializer": {
                "module": "keras.initializers",
                "class_name": "Ones",
                "config": {},
                "registered_name": null
              },
              "beta_regularizer": null,
              "gamma_regularizer": null,
              "beta_constraint": null,
              "gamma_constraint": null,
              "synchronized": false
            },
            "name": "batch_normalization",
            "inbound_nodes": [
              {
                "args": [
                  {
                    "class_name": "__keras_tensor__",
                    "config": {
                      "shape": [
                        null,
                        256,
                        256,
                        16
                      ],
                      "dtype": "float32",
                      "keras_history": [
                        "conv2d_4",
                        0,
                        0
                      ]
                    }
                  }
                ],
                "kwargs": {
                  "mask": null
                }
              }
            ]
          },
          {
            "class_name": "Activation",
            "config": {
              "name": "activation",
              "trainable": true,
              "dtype": {
                "module": "keras",
                "class_name": "DTypePolicy",
                "config": {
                  "name": "float32"
                },
                "registered_name": null
              },
              "activation": "relu"
            },
            "name": "activation",
            "inbound_nodes": [
              {
                "args": [
                  {
                    "class_name": "__keras_tensor__",
                    "config": {
                      "shape": [
                        null,
                        256,
                        256,
                        16
                      ],
                      "dtype": "float32",
                      "keras_history": [
                        "batch_normalization",
                        0,
                        0
                      ]
                    }
                  }
                ],
                "kwargs": {}
              }
            ]
          },
          {
            "class_name": "MaxPooling2D",
            "config": {
              "name": "max_pooling2d_4",
              "trainable": true,
              "dtype": {
                "module": "keras",
                "class_name": "DTypePolicy",
                "config": {
                  "name": "float32"
                },
                "registered_name": null
              },
              "pool_size": [
                2,
                2
              ],
              "padding": "valid",
              "strides": [
                2,
                2
              ],
              "data_format": "channels_last"
            },
            "name": "max_pooling2d_4",
            "inbound_nodes": [
              {
                "args": [
                  {
                    "class_name": "__keras_tensor__",
                    "config": {
                      "shape": [
                        null,
                        256,
                        256,
                        16
                      ],
                      "dtype": "float32",
                      "keras_history": [
                        "activation",
                        0,
                        0
                      ]
                    }
                  }
                ],
                "kwargs": {}
              }
            ]
          },
          {
            "class_name": "Conv2D",
            "config": {
              "name": "conv2d_5",
              "trainable": true,
              "dtype": {
                "module": "keras",
                "class_name": "DTypePolicy",
                "config": {
                  "name": "float32"
                },
                "registered_name": null
              },
              "filters": 16,
              "kernel_size": [
                3,
                3
              ],
              "strides": [
                1,
                1
              ],
              "padding": "same",
              "data_format": "channels_last",
              "dilation_rate": [
                1,
                1
              ],
              "groups": 1,
              "activation": "relu",
              "use_bias": true,
              "kernel_initializer": {
                "module": "keras.initializers",
                "class_name": "GlorotNormal",
                "config": {
                  "seed": null
                },
                "registered_name": null
              },
              "bias_initializer": {
                "module": "keras.initializers",
                "class_name": "Zeros",
                "config": {},
                "registered_name": null
              },
              "kernel_regularizer": null,
              "bias_regularizer": null,
              "activity_regularizer": null,
              "kernel_constraint": null,
              "bias_constraint": null
            },
            "name": "conv2d_5",
            "inbound_nodes": [
              {
                "args": [
                  {
                    "class_name": "__keras_tensor__",
                    "config": {
                      "shape": [
                        null,
                        128,
                        128,
                        16
                      ],
                      "dtype": "float32",
                      "keras_history": [
                        "max_pooling2d_4",
                        0,
                        0
                      ]
                    }
                  }
                ],
                "kwargs": {}
              }
            ]
          },
          {
            "class_name": "Conv2D",
            "config": {
              "name": "conv2d_6",
              "trainable": true,
              "dtype": {
                "module": "keras",
                "class_name": "DTypePolicy",
                "config": {
                  "name": "float32"
                },
                "registered_name": null
              },
              "filters": 16,
              "kernel_size": [
                3,
                3
              ],
              "strides": [
                1,
                1
              ],
              "padding": "same",
              "data_format": "channels_last",
              "dilation_rate": [
                1,
                1
              ],
              "groups": 1,
              "activation": "linear",
              "use_bias": true,
              "kernel_initializer": {
                "module": "keras.initializers",
                "class_name": "GlorotNormal",
                "config": {
                  "seed": null
                },
                "registered_name": null
              },
              "bias_initializer": {
                "module": "keras.initializers",
                "class_name": "Zeros",
                "config": {},
                "registered_name": null
              },
              "kernel_regularizer": null,
              "bias_regularizer": null,
              "activity_regularizer": null,
              "kernel_constraint": null,
              "bias_constraint": null
            },
            "name": "conv2d_6",
            "inbound_nodes": [
              {
                "args": [
                  {
                    "class_name": "__keras_tensor__",
                    "config": {
                      "shape": [
                        null,
                        128,
                        128,
                        16
                      ],
                      "dtype": "float32",
                      "keras_history": [
                        "conv2d_5",
                        0,
                        0
                      ]
                    }
                  }
                ],
                "kwargs": {}
              }
            ]
          },
          {
            "class_name": "BatchNormalization",
            "config": {
              "name": "batch_normalization_1",
              "trainable": true,
              "dtype": {
                "module": "keras",
                "class_name": "DTypePolicy",
                "config": {
                  "name": "float32"
                },
                "registered_name": null
              },
              "axis": 3,
              "momentum": 0.99,
              "epsilon": 0.001,
              "center": true,
              "scale": true,
              "beta_initializer": {
                "module": "keras.initializers",
                "class_name": "Zeros",
                "config": {},
                "registered_name": null
              },
              "gamma_initializer": {
                "module": "keras.initializers",
                "class_name": "Ones",
                "config": {},
                "registered_name": null
              },
              "moving_mean_initializer": {
                "module": "keras.initializers",
                "class_name": "Zeros",
                "config": {},
                "registered_name": null
              },
              "moving_variance_initializer": {
                "module": "keras.initializers",
                "class_name": "Ones",
                "config": {},
                "registered_name": null
              },
              "beta_regularizer": null,
              "gamma_regularizer": null,
              "beta_constraint": null,
              "gamma_constraint": null,
              "synchronized": false
            },
            "name": "batch_normalization_1",
            "inbound_nodes": [
              {
                "args": [
                  {
                    "class_name": "__keras_tensor__",
                    "config": {
                      "shape": [
                        null,
                        128,
                        128,
                        16
                      ],
                      "dtype": "float32",
                      "keras_history": [
                        "conv2d_6",
                        0,
                        0
                      ]
                    }
                  }
                ],
                "kwargs": {
                  "mask": null
                }
              }
            ]
          },
          {
            "class_name": "Activation",
            "config": {
              "name": "activation_1",
              "trainable": true,
              "dtype": {
                "module": "keras",
                "class_name": "DTypePolicy",
                "config": {
                  "name": "float32"
                },
                "registered_name": null
              },
              "activation": "relu"
            },
            "name": "activation_1",
            "inbound_nodes": [
              {
                "args": [
                  {
                    "class_name": "__keras_tensor__",
                    "config": {
                      "shape": [
                        null,
                        128,
                        128,
                        16
                      ],
                      "dtype": "float32",
                      "keras_history": [
                        "batch_normalization_1",
                        0,
                        0
                      ]
                    }
                  }
                ],
                "kwargs": {}
              }
            ]
          },
          {
            "class_name": "MaxPooling2D",
            "config": {
              "name": "max_pooling2d_6",
              "trainable": true,
              "dtype": {
                "module": "keras",
                "class_name": "DTypePolicy",
                "config": {
                  "name": "float32"
                },
                "registered_name": null
              },
              "pool_size": [
                2,
                2
              ],
              "padding": "valid",
              "strides": [
                2,
                2
              ],
              "data_format": "channels_last"
            },
            "name": "max_pooling2d_6",
            "inbound_nodes": [
              {
                "args": [
                  {
                    "class_name": "__keras_tensor__",
                    "config": {
                      "shape": [
                        null,
                        128,
                        128,
                        16
                      ],
                      "dtype": "float32",
                      "keras_history": [
                        "max_pooling2d_4",
                        0,
                        0
                      ]
                    }
                  }
                ],
                "kwargs": {}
              }
            ]
          },
          {
            "class_name": "MaxPooling2D",
            "config": {
              "name": "max_pooling2d_5",
              "trainable": true,
              "dtype": {
                "module": "keras",
                "class_name": "DTypePolicy",
                "config": {
                  "name": "float32"
                },
                "registered_name": null
              },
              "pool_size": [
                2,
                2
              ],
              "padding": "valid",
              "strides": [
                2,
                2
              ],
              "data_format": "channels_last"
            },
            "name": "max_pooling2d_5",
            "inbound_nodes": [
              {
                "args": [
                  {
                    "class_name": "__keras_tensor__",
                    "config": {
                      "shape": [
                        null,
                        128,
                        128,
                        16
                      ],
                      "dtype": "float32",
                      "keras_history": [
                        "activation_1",
                        0,
                        0
                      ]
                    }
                  }
                ],
                "kwargs": {}
              }
            ]
          },
          {
            "class_name": "Concatenate",
            "config": {
              "name": "concatenate",
              "trainable": true,
              "dtype": {
                "module": "keras",
                "class_name": "DTypePolicy",
                "config": {
                  "name": "float32"
                },
                "registered_name": null
              },
              "axis": 3
            },
            "name": "concatenate",
            "inbound_nodes": [
              {
                "args": [
                  [
                    {
                      "class_name": "__keras_tensor__",
                      "config": {
                        "shape": [
                          null,
                          64,
                          64,
                          16
                        ],
                        "dtype": "float32",
                        "keras_history": [
                          "max_pooling2d_6",
                          0,
                          0
                        ]
                      }
                    },
                    {
                      "class_name": "__keras_tensor__",
                      "config": {
                        "shape": [
                          null,
                          64,
                          64,
                          16
                        ],
                        "dtype": "float32",
                        "keras_history": [
                          "max_pooling2d_5",
                          0,
                          0
                        ]
                      }
                    }
                  ]
                ],
                "kwargs": {}
              }
            ]
          },
          {
            "class_name": "Conv2D",
            "config": {
              "name": "conv2d_7",
              "trainable": true,
              "dtype": {
                "module": "keras",
                "class_name": "DTypePolicy",
                "config": {
                  "name": "float32"
                },
                "registered_name": null
              },
              "filters": 32,
              "kernel_size": [
                3,
                3
              ],
              "strides": [
                1,
                1
              ],
              "padding": "same",
              "data_format": "channels_last",
              "dilation_rate": [
                1,
                1
              ],
              "groups": 1,
              "activation": "relu",
              "use_bias": true,
              "kernel_initializer": {
                "module": "keras.initializers",
                "class_name": "GlorotNormal",
                "config": {
                  "seed": null
                },
                "registered_name": null
              },
              "bias_initializer": {
                "module": "keras.initializers",
                "class_name": "Zeros",
                "config": {},
                "registered_name": null
              },
              "kernel_regularizer": null,
              "bias_regularizer": null,
              "activity_regularizer": null,
              "kernel_constraint": null,
              "bias_constraint": null
            },
            "name": "conv2d_7",
            "inbound_nodes": [
              {
                "args": [
                  {
                    "class_name": "__keras_tensor__",
                    "config": {
                      "shape": [
                        null,
                        64,
                        64,
                        32
                      ],
                      "dtype": "float32",
                      "keras_history": [
                        "concatenate",
                        0,
                        0
                      ]
                    }
                  }
                ],
                "kwargs": {}
              }
            ]
          },
          {
            "class_name": "Conv2D",
            "config": {
              "name": "conv2d_8",
              "trainable": true,
              "dtype": {
                "module": "keras",
                "class_name": "DTypePolicy",
                "config": {
                  "name": "float32"
                },
                "registered_name": null
              },
              "filters": 32,
              "kernel_size": [
                3,
                3
              ],
              "strides": [
                1,
                1
              ],
              "padding": "same",
              "data_format": "channels_last",
              "dilation_rate": [
                1,
                1
              ],
              "groups": 1,
              "activation": "linear",
              "use_bias": true,
              "kernel_initializer": {
                "module": "keras.initializers",
                "class_name": "GlorotNormal",
                "config": {
                  "seed": null
                },
                "registered_name": null
              },
              "bias_initializer": {
                "module": "keras.initializers",
                "class_name": "Zeros",
                "config": {},
                "registered_name": null
              },
              "kernel_regularizer": null,
              "bias_regularizer": null,
              "activity_regularizer": null,
              "kernel_constraint": null,
              "bias_constraint": null
            },
            "name": "conv2d_8",
            "inbound_nodes": [
              {
                "args": [
                  {
                    "class_name": "__keras_tensor__",
                    "config": {
                      "shape": [
                        null,
                        64,
                        64,
                        32
                      ],
                      "dtype": "float32",
                      "keras_history": [
                        "conv2d_7",
                        0,
                        0
                      ]
                    }
                  }
                ],
                "kwargs": {}
              }
            ]
          },
          {
            "class_name": "BatchNormalization",
            "config": {
              "name": "batch_normalization_2",
              "trainable": true,
              "dtype": {
                "module": "keras",
                "class_name": "DTypePolicy",
                "config": {
                  "name": "float32"
                },
                "registered_name": null
              },
              "axis": 3,
              "momentum": 0.99,
              "epsilon": 0.001,
              "center": true,
              "scale": true,
              "beta_initializer": {
                "module": "keras.initializers",
                "class_name": "Zeros",
                "config": {},
                "registered_name": null
              },
              "gamma_initializer": {
                "module": "keras.initializers",
                "class_name": "Ones",
                "config": {},
                "registered_name": null
              },
              "moving_mean_initializer": {
                "module": "keras.initializers",
                "class_name": "Zeros",
                "config": {},
                "registered_name": null
              },
              "moving_variance_initializer": {
                "module": "keras.initializers",
                "class_name": "Ones",
                "config": {},
                "registered_name": null
              },
              "beta_regularizer": null,
              "gamma_regularizer": null,
              "beta_constraint": null,
              "gamma_constraint": null,
              "synchronized": false
            },
            "name": "batch_normalization_2",
            "inbound_nodes": [
              {
                "args": [
                  {
                    "class_name": "__keras_tensor__",
                    "config": {
                      "shape": [
                        null,
                        64,
                        64,
                        32
                      ],
                      "dtype": "float32",
                      "keras_history": [
                        "conv2d_8",
                        0,
                        0
                      ]
                    }
                  }
                ],
                "kwargs": {
                  "mask": null
                }
              }
            ]
          },
          {
            "class_name": "Activation",
            "config": {
              "name": "activation_2",
              "trainable": true,
              "dtype": {
                "module": "keras",
                "class_name": "DTypePolicy",
                "config": {
                  "name": "float32"
                },
                "registered_name": null
              },
              "activation": "relu"
            },
            "name": "activation_2",
            "inbound_nodes": [
              {
                "args": [
                  {
                    "class_name": "__keras_tensor__",
                    "config": {
                      "shape": [
                        null,
                        64,
                        64,
                        32
                      ],
                      "dtype": "float32",
                      "keras_history": [
                        "batch_normalization_2",
                        0,
                        0
                      ]
                    }
                  }
                ],
                "kwargs": {}
              }
            ]
          },
          {
            "class_name": "MaxPooling2D",
            "config": {
              "name": "max_pooling2d_7",
              "trainable": true,
              "dtype": {
                "module": "keras",
                "class_name": "DTypePolicy",
                "config": {
                  "name": "float32"
                },
                "registered_name": null
              },
              "pool_size": [
                2,
                2
              ],
              "padding": "valid",
              "strides": [
                2,
                2
              ],
              "data_format": "channels_last"
            },
            "name": "max_pooling2d_7",
            "inbound_nodes": [
              {
                "args": [
                  {
                    "class_name": "__keras_tensor__",
                    "config": {
                      "shape": [
                        null,
                        64,
                        64,
                        32
                      ],
                      "dtype": "float32",
                      "keras_history": [
                        "activation_2",
                        0,
                        0
                      ]
                    }
                  }
                ],
                "kwargs": {}
              }
            ]
          },
          {
            "class_name": "Conv2D",
            "config": {
              "name": "conv2d_9",
              "trainable": true,
              "dtype": {
                "module": "keras",
                "class_name": "DTypePolicy",
                "config": {
                  "name": "float32"
                },
                "registered_name": null
              },
              "filters": 32,
              "kernel_size": [
                3,
                3
              ],
              "strides": [
                1,
                1
              ],
              "padding": "same",
              "data_format": "channels_last",
              "dilation_rate": [
                1,
                1
              ],
              "groups": 1,
              "activation": "relu",
              "use_bias": true,
              "kernel_initializer": {
                "module": "keras.initializers",
                "class_name": "GlorotNormal",
                "config": {
                  "seed": null
                },
                "registered_name": null
              },
              "bias_initializer": {
                "module": "keras.initializers",
                "class_name": "Zeros",
                "config": {},
                "registered_name": null
              },
              "kernel_regularizer": null,
              "bias_regularizer": null,
              "activity_regularizer": null,
              "kernel_constraint": null,
              "bias_constraint": null
            },
            "name": "conv2d_9",
            "inbound_nodes": [
              {
                "args": [
                  {
                    "class_name": "__keras_tensor__",
                    "config": {
                      "shape": [
                        null,
                        32,
                        32,
                        32
                      ],
                      "dtype": "float32",
                      "keras_history": [
                        "max_pooling2d_7",
                        0,
                        0
                      ]
                    }
                  }
                ],
                "kwargs": {}
              }
            ]
          },
          {
            "class_name": "Conv2D",
            "config": {
              "name": "conv2d_10",
              "trainable": true,
              "dtype": {
                "module": "keras",
                "class_name": "DTypePolicy",
                "config": {
                  "name": "float32"
                },
                "registered_name": null
              },
              "filters": 32,
              "kernel_size": [
                3,
                3
              ],
              "strides": [
                1,
                1
              ],
              "padding": "same",
              "data_format": "channels_last",
              "dilation_rate": [
                1,
                1
              ],
              "groups": 1,
              "activation": "linear",
              "use_bias": true,
              "kernel_initializer": {
                "module": "keras.initializers",
                "class_name": "GlorotNormal",
                "config": {
                  "seed": null
                },
                "registered_name": null
              },
              "bias_initializer": {
                "module": "keras.initializers",
                "class_name": "Zeros",
                "config": {},
                "registered_name": null
              },
              "kernel_regularizer": null,
              "bias_regularizer": null,
              "activity_regularizer": null,
              "kernel_constraint": null,
              "bias_constraint": null
            },
            "name": "conv2d_10",
            "inbound_nodes": [
              {
                "args": [
                  {
                    "class_name": "__keras_tensor__",
                    "config": {
                      "shape": [
                        null,
                        32,
                        32,
                        32
                      ],
                      "dtype": "float32",
                      "keras_history": [
                        "conv2d_9",
                        0,
                        0
                      ]
                    }
                  }
                ],
                "kwargs": {}
              }
            ]
          },
          {
            "class_name": "BatchNormalization",
            "config": {
              "name": "batch_normalization_3",
              "trainable": true,
              "dtype": {
                "module": "keras",
                "class_name": "DTypePolicy",
                "config": {
                  "name": "float32"
                },
                "registered_name": null
              },
              "axis": 3,
              "momentum": 0.99,
              "epsilon": 0.001,
              "center": true,
              "scale": true,
              "beta_initializer": {
                "module": "keras.initializers",
                "class_name": "Zeros",
                "config": {},
                "registered_name": null
              },
              "gamma_initializer": {
                "module": "keras.initializers",
                "class_name": "Ones",
                "config": {},
                "registered_name": null
              },
              "moving_mean_initializer": {
                "module": "keras.initializers",
                "class_name": "Zeros",
                "config": {},
                "registered_name": null
              },
              "moving_variance_initializer": {
                "module": "keras.initializers",
                "class_name": "Ones",
                "config": {},
                "registered_name": null
              },
              "beta_regularizer": null,
              "gamma_regularizer": null,
              "beta_constraint": null,
              "gamma_constraint": null,
              "synchronized": false
            },
            "name": "batch_normalization_3",
            "inbound_nodes": [
              {
                "args": [
                  {
                    "class_name": "__keras_tensor__",
                    "config": {
                      "shape": [
                        null,
                        32,
                        32,
                        32
                      ],
                      "dtype": "float32",
                      "keras_history": [
                        "conv2d_10",
                        0,
                        0
                      ]
                    }
                  }
                ],
                "kwargs": {
                  "mask": null
                }
              }
            ]
          },
          {
            "class_name": "Activation",
            "config": {
              "name": "activation_3",
              "trainable": true,
              "dtype": {
                "module": "keras",
                "class_name": "DTypePolicy",
                "config": {
                  "name": "float32"
                },
                "registered_name": null
              },
              "activation": "relu"
            },
            "name": "activation_3",
            "inbound_nodes": [
              {
                "args": [
                  {
                    "class_name": "__keras_tensor__",
                    "config": {
                      "shape": [
                        null,
                        32,
                        32,
                        32
                      ],
                      "dtype": "float32",
                      "keras_history": [
                        "batch_normalization_3",
                        0,
                        0
                      ]
                    }
                  }
                ],
                "kwargs": {}
              }
            ]
          },
          {
            "class_name": "MaxPooling2D",
            "config": {
              "name": "max_pooling2d_9",
              "trainable": true,
              "dtype": {
                "module": "keras",
                "class_name": "DTypePolicy",
                "config": {
                  "name": "float32"
                },
                "registered_name": null
              },
              "pool_size": [
                2,
                2
              ],
              "padding": "valid",
              "strides": [
                2,
                2
              ],
              "data_format": "channels_last"
            },
            "name": "max_pooling2d_9",
            "inbound_nodes": [
              {
                "args": [
                  {
                    "class_name": "__keras_tensor__",
                    "config": {
                      "shape": [
                        null,
                        32,
                        32,
                        32
                      ],
                      "dtype": "float32",
                      "keras_history": [
                        "max_pooling2d_7",
                        0,
                        0
                      ]
                    }
                  }
                ],
                "kwargs": {}
              }
            ]
          },
          {
            "class_name": "MaxPooling2D",
            "config": {
              "name": "max_pooling2d_8",
              "trainable": true,
              "dtype": {
                "module": "keras",
                "class_name": "DTypePolicy",
                "config": {
                  "name": "float32"
                },
                "registered_name": null
              },
              "pool_size": [
                2,
                2
              ],
              "padding": "valid",
              "strides": [
                2,
                2
              ],
              "data_format": "channels_last"
            },
            "name": "max_pooling2d_8",
            "inbound_nodes": [
              {
                "args": [
                  {
                    "class_name": "__keras_tensor__",
                    "config": {
                      "shape": [
                        null,
                        32,
                        32,
                        32
                      ],
                      "dtype": "float32",
                      "keras_history": [
                        "activation_3",
                        0,
                        0
                      ]
                    }
                  }
                ],
                "kwargs": {}
              }
            ]
          },
          {
            "class_name": "Concatenate",
            "config": {
              "name": "concatenate_1",
              "trainable": true,
              "dtype": {
                "module": "keras",
                "class_name": "DTypePolicy",
                "config": {
                  "name": "float32"
                },
                "registered_name": null
              },
              "axis": 3
            },
            "name": "concatenate_1",
            "inbound_nodes": [
              {
                "args": [
                  [
                    {
                      "class_name": "__keras_tensor__",
                      "config": {
                        "shape": [
                          null,
                          16,
                          16,
                          32
                        ],
                        "dtype": "float32",
                        "keras_history": [
                          "max_pooling2d_9",
                          0,
                          0
                        ]
                      }
                    },
                    {
                      "class_name": "__keras_tensor__",
                      "config": {
                        "shape": [
                          null,
                          16,
                          16,
                          32
                        ],
                        "dtype": "float32",
                        "keras_history": [
                          "max_pooling2d_8",
                          0,
                          0
                        ]
                      }
                    }
                  ]
                ],
                "kwargs": {}
              }
            ]
          },
          {
            "class_name": "Conv2D",
            "config": {
              "name": "conv2d_11",
              "trainable": true,
              "dtype": {
                "module": "keras",
                "class_name": "DTypePolicy",
                "config": {
                  "name": "float32"
                },
                "registered_name": null
              },
              "filters": 64,
              "kernel_size": [
                3,
                3
              ],
              "strides": [
                1,
                1
              ],
              "padding": "same",
              "data_format": "channels_last",
              "dilation_rate": [
                1,
                1
              ],
              "groups": 1,
              "activation": "relu",
              "use_bias": true,
              "kernel_initializer": {
                "module": "keras.initializers",
                "class_name": "GlorotUniform",
                "config": {
                  "seed": null
                },
                "registered_name": null
              },
              "bias_initializer": {
                "module": "keras.initializers",
                "class_name": "Zeros",
                "config": {},
                "registered_name": null
              },
              "kernel_regularizer": null,
              "bias_regularizer": null,
              "activity_regularizer": null,
              "kernel_constraint": null,
              "bias_constraint": null
            },
            "name": "conv2d_11",
            "inbound_nodes": [
              {
                "args": [
                  {
                    "class_name": "__keras_tensor__",
                    "config": {
                      "shape": [
                        null,
                        16,
                        16,
                        64
                      ],
                      "dtype": "float32",
                      "keras_history": [
                        "concatenate_1",
                        0,
                        0
                      ]
                    }
                  }
                ],
                "kwargs": {}
              }
            ]
          },
          {
            "class_name": "MaxPooling2D",
            "config": {
              "name": "max_pooling2d_10",
              "trainable": true,
              "dtype": {
                "module": "keras",
                "class_name": "DTypePolicy",
                "config": {
                  "name": "float32"
                },
                "registered_name": null
              },
              "pool_size": [
                2,
                2
              ],
              "padding": "valid",
              "strides": [
                2,
                2
              ],
              "data_format": "channels_last"
            },
            "name": "max_pooling2d_10",
            "inbound_nodes": [
              {
                "args": [
                  {
                    "class_name": "__keras_tensor__",
                    "config": {
                      "shape": [
                        null,
                        16,
                        16,
                        64
                      ],
                      "dtype": "float32",
                      "keras_history": [
                        "conv2d_11",
                        0,
                        0
                      ]
                    }
                  }
                ],
                "kwargs": {}
              }
            ]
          },
          {
            "class_name": "Conv2D",
            "config": {
              "name": "conv2d_12",
              "trainable": true,
              "dtype": {
                "module": "keras",
                "class_name": "DTypePolicy",
                "config": {
                  "name": "float32"
                },
                "registered_name": null
              },
              "filters": 128,
              "kernel_size": [
                3,
                3
              ],
              "strides": [
                1,
                1
              ],
              "padding": "same",
              "data_format": "channels_last",
              "dilation_rate": [
                1,
                1
              ],
              "groups": 1,
              "activation": "relu",
              "use_bias": true,
              "kernel_initializer": {
                "module": "keras.initializers",
                "class_name": "GlorotUniform",
                "config": {
                  "seed": null
                },
                "registered_name": null
              },
              "bias_initializer": {
                "module": "keras.initializers",
                "class_name": "Zeros",
                "config": {},
                "registered_name": null
              },
              "kernel_regularizer": null,
              "bias_regularizer": null,
              "activity_regularizer": null,
              "kernel_constraint": null,
              "bias_constraint": null
            },
            "name": "conv2d_12",
            "inbound_nodes": [
              {
                "args": [
                  {
                    "class_name": "__keras_tensor__",
                    "config": {
                      "shape": [
                        null,
                        8,
                        8,
                        64
                      ],
                      "dtype": "float32",
                      "keras_history": [
                        "max_pooling2d_10",
                        0,
                        0
                      ]
                    }
                  }
                ],
                "kwargs": {}
              }
            ]
          },
          {
            "class_name": "MaxPooling2D",
            "config": {
              "name": "max_pooling2d_11",
              "trainable": true,
              "dtype": {
                "module": "keras",
                "class_name": "DTypePolicy",
                "config": {
                  "name": "float32"
                },
                "registered_name": null
              },
              "pool_size": [
                2,
                2
              ],
              "padding": "valid",
              "strides": [
                2,
                2
              ],
              "data_format": "channels_last"
            },
            "name": "max_pooling2d_11",
            "inbound_nodes": [
              {
                "args": [
                  {
                    "class_name": "__keras_tensor__",
                    "config": {
                      "shape": [
                        null,
                        8,
                        8,
                        128
                      ],
                      "dtype": "float32",
                      "keras_history": [
                        "conv2d_12",
                        0,
                        0
                      ]
                    }
                  }
                ],
                "kwargs": {}
              }
            ]
          },
          {
            "class_name": "Flatten",
            "config": {
              "name": "flatten_1",
              "trainable": true,
              "dtype": {
                "module": "keras",
                "class_name": "DTypePolicy",
                "config": {
                  "name": "float32"
                },
                "registered_name": null
              },
              "data_format": "channels_last"
            },
            "name": "flatten_1",
            "inbound_nodes": [
              {
                "args": [
                  {
                    "class_name": "__keras_tensor__",
                    "config": {
                      "shape": [
                        null,
                        4,
                        4,
                        128
                      ],
                      "dtype": "float32",
                      "keras_history": [
                        "max_pooling2d_11",
                        0,
                        0
                      ]
                    }
                  }
                ],
                "kwargs": {}
              }
            ]
          },
          {
            "class_name": "Dense",
            "config": {
              "name": "dense_3",
              "trainable": true,
              "dtype": {
                "module": "keras",
                "class_name": "DTypePolicy",
                "config": {
                  "name": "float32"
                },
                "registered_name": null
              },
              "units": 128,
              "activation": "relu",
              "use_bias": true,
              "kernel_initializer": {
                "module": "keras.initializers",
                "class_name": "GlorotUniform",
                "config": {
                  "seed": null
                },
                "registered_name": null
              },
              "bias_initializer": {
                "module": "keras.initializers",
                "class_name": "Zeros",
                "config": {},
                "registered_name": null
              },
              "kernel_regularizer": null,
              "bias_regularizer": null,
              "kernel_constraint": null,
              "bias_constraint": null
            },
            "name": "dense_3",
            "inbound_nodes": [
              {
                "args": [
                  {
                    "class_name": "__keras_tensor__",
                    "config": {
                      "shape": [
                        null,
                        2048
                      ],
                      "dtype": "float32",
                      "keras_history": [
                        "flatten_1",
                        0,
                        0
                      ]
                    }
                  }
                ],
                "kwargs": {}
              }
            ]
          },
          {
            "class_name": "Dropout",
            "config": {
              "name": "dropout",
              "trainable": true,
              "dtype": {
                "module": "keras",
                "class_name": "DTypePolicy",
                "config": {
                  "name": "float32"
                },
                "registered_name": null
              },
              "rate": 0.4,
              "seed": null,
              "noise_shape": null
            },
            "name": "dropout",
            "inbound_nodes": [
              {
                "args": [
                  {
                    "class_name": "__keras_tensor__",
                    "config": {
                      "shape": [
                        null,
                        128
                      ],
                      "dtype": "float32",
                      "keras_history": [
                        "dense_3",
                        0,
                        0
                      ]
                    }
                  }
                ],
                "kwargs": {
                  "training": false
                }
              }
            ]
          },
          {
            "class_name": "Dense",
            "config": {
              "name": "dense_5",
              "trainable": true,
              "dtype": {
                "module": "keras",
                "class_name": "DTypePolicy",
                "config": {
                  "name": "float32"
                },
                "registered_name": null
              },
              "units": 10,
              "activation": "softmax",
              "use_bias": true,
              "kernel_initializer": {
                "module": "keras.initializers",
                "class_name": "GlorotUniform",
                "config": {
                  "seed": null
                },
                "registered_name": null
              },
              "bias_initializer": {
                "module": "keras.initializers",
                "class_name": "Zeros",
                "config": {},
                "registered_name": null
              },
              "kernel_regularizer": null,
              "bias_regularizer": null,
              "kernel_constraint": null,
              "bias_constraint": null
            },
            "name": "dense_5",
            "inbound_nodes": [
              {
                "args": [
                  {
                    "class_name": "__keras_tensor__",
                    "config": {
                      "shape": [
                        null,
                        128
                      ],
                      "dtype": "float32",
                      "keras_history": [
                        "dropout",
                        0,
                        0
                      ]
                    }
                  }
                ],
                "kwargs": {}
              }
            ]
          }
        ],
        "input_layers": [
          [
            "input_2",
            0,
            0
          ]
        ],
        "output_layers": [
          [
            "dense_5",
            0,
            0
          ]
        ]
      }
    }
  },
  "weightsManifest": [
    {
      "paths": [
        "group1-shard1of1_trained.bin"
      ],
      "weights": [
        {
          "name": "batch_normalization/beta",
          "shape": [
            16
          ],
          "dtype": "float32"
        },
        {
          "name": "batch_normalization/gamma",
          "shape": [
            16
          ],
          "dtype": "float32"
        },
        {
          "name": "batch_normalization/moving_mean",
          "shape": [
            16
          ],
          "dtype": "float32"
        },
        {
          "name": "batch_normalization/moving_variance",
          "shape": [
            16
          ],
          "dtype": "float32"
        },
        {
          "name": "batch_normalization_1/beta",
          "shape": [
            16
          ],
          "dtype": "float32"
        },
        {
          "name": "batch_normalization_1/gamma",
          "shape": [
            16
          ],
          "dtype": "float32"
        },
        {
          "name": "batch_normalization_1/moving_mean",
          "shape": [
            16
          ],
          "dtype": "float32"
        },
        {
          "name": "batch_normalization_1/moving_variance",
          "shape": [
            16
          ],
          "dtype": "float32"
        },
        {
          "name": "batch_normalization_2/beta",
          "shape": [
            32
          ],
          "dtype": "float32"
        },
        {
          "name": "batch_normalization_2/gamma",
          "shape": [
            32
          ],
          "dtype": "float32"
        },
        {
          "name": "batch_normalization_2/moving_mean",
          "shape": [
            32
          ],
          "dtype": "float32"
        },
        {
          "name": "batch_normalization_2/moving_variance",
          "shape": [
            32
          ],
          "dtype": "float32"
        },
        {
          "name": "batch_normalization_3/beta",
          "shape": [
            32
          ],
          "dtype": "float32"
        },
        {
          "name": "batch_normalization_3/gamma",
          "shape": [
            32
          ],
          "dtype": "float32"
        },
        {
          "name": "batch_normalization_3/moving_mean",
          "shape": [
            32
          ],
          "dtype": "float32"
        },
        {
          "name": "batch_normalization_3/moving_variance",
          "shape": [
            32
          ],
          "dtype": "float32"
        },
        {
          "name": "conv2d_3/kernel",
          "shape": [
            3,
            3,
            3,
            16
          ],
          "dtype": "float32"
        },
        {
          "name": "conv2d_3/bias",
          "shape": [
            16
          ],
          "dtype": "float32"
        },
        {
          "name": "conv2d_4/kernel",
          "shape": [
            3,
            3,
            16,
            16
          ],
          "dtype": "float32"
        },
        {
          "name": "conv2d_4/bias",
          "shape": [
            16
          ],
          "dtype": "float32"
        },
        {
          "name": "conv2d_5/kernel",
          "shape": [
            3,
            3,
            16,
            16
          ],
          "dtype": "float32"
        },
        {
          "name": "conv2d_5/bias",
          "shape": [
            16
          ],
          "dtype": "float32"
        },
        {
          "name": "conv2d_6/kernel",
          "shape": [
            3,
            3,
            16,
            16
          ],
          "dtype": "float32"
        },
        {
          "name": "conv2d_6/bias",
          "shape": [
            16
          ],
          "dtype": "float32"
        },
        {
          "name": "conv2d_7/kernel",
          "shape": [
            3,
            3,
            32,
            32
          ],
          "dtype": "float32"
        },
        {
          "name": "conv2d_7/bias",
          "shape": [
            32
          ],
          "dtype": "float32"
        },
        {
          "name": "conv2d_8/kernel",
          "shape": [
            3,
            3,
            32,
            32
          ],
          "dtype": "float32"
        },
        {
          "name": "conv2d_8/bias",
          "shape": [
            32
          ],
          "dtype": "float32"
        },
        {
          "name": "conv2d_9/kernel",
          "shape": [
            3,
            3,
            32,
            32
          ],
          "dtype": "float32"
        },
        {
          "name": "conv2d_9/bias",
          "shape": [
            32
          ],
          "dtype": "float32"
        },
        {
          "name": "conv2d_10/kernel",
          "shape": [
            3,
            3,
            32,
            32
          ],
          "dtype": "float32"
        },
        {
          "name": "conv2d_10/bias",
          "shape": [
            32
          ],
          "dtype": "float32"
        },
        {
          "name": "conv2d_11/kernel",
          "shape": [
            3,
            3,
            64,
            64
          ],
          "dtype": "float32"
        },
        {
          "name": "conv2d_11/bias",
          "shape": [
            64
          ],
          "dtype": "float32"
        },
        {
          "name": "conv2d_12/kernel",
          "shape": [
            3,
            3,
            64,
            128
          ],
          "dtype": "float32"
        },
        {
          "name": "conv2d_12/bias",
          "shape": [
            128
          ],
          "dtype": "float32"
        },
        {
          "name": "dense_3/kernel",
          "shape": [
            2048,
            128
          ],
          "dtype": "float32"
        },
        {
          "name": "dense_3/bias",
          "shape": [
            128
          ],
          "dtype": "float32"
        },
        {
          "name": "dense_5/kernel",
          "shape": [
            128,
            10
          ],
          "dtype": "float32"
        },
        {
          "name": "dense_5/bias",
          "shape": [
            10
          ],
          "dtype": "float32"
        }
      ]
    }
  ]
}